RL for adaptive video compression/RL_data/classifier_model.onnx (onnx, 76923 bytes, 8 tensors)

model/output_B/MatMul/ReadVariableOp:0 f4 [64, 2]
-0.4029739 0.33692312 0.22793542 -0.35868284 0.38595495 -0.34208712 -0.18285723 -0.03567913
0.49699673 -0.5754949 -0.04785073 0.25308365 -0.24308024 0.26742685 0.51509976 -0.500539
0.87078583 -1.0719353 -0.2853722 0.38401732 -0.12052979 0.31307065 -0.40082064 0.29901356
-0.038446553 0.098429166 0.6004819 -0.79019195 0.4200882 -0.7328736 -0.04731877 0.23205142
-0.25498766 -0.061596595 0.51922584 -0.397505 0.27194583 -0.4540709 -0.23846114 0.039124448
0.71890324 -0.8296382 0.61294156 -0.72695965 0.90974313 -0.6962457 0.47662434 -0.3486585
0.86846745 -0.9288283 -0.086881675 0.33946106 0.98581415 -0.63085747 0.39313728 -0.2692476
0.42598867 -0.21362796 0.6657058 -0.7214713 0.22623649 0.021012906 0.42236185 -0.16509287
0.15809722 0.1902633 0.23349601 -0.16949344 -0.21018396 -0.07154129 -0.42663965 0.4349844
0.40488088 -0.37491828 0.9427206 -0.71990204 -0.2275625 0.30873945 -0.39275625 0.108582474
0.59160763 -0.37615 -0.14431438 0.35426363 0.42478725 -0.114516124 0.069987185 -0.36196643
-0.27827922 0.27080578 0.43328995 -0.57328194 0.8613938 -0.76262945 1.1540298 -1.0467563
0.27917552 -0.42463434 0.33426052 -0.36845818 0.23332933 -0.35591763 0.36125997 -0.40409878
0.49044275 -0.23102239 -0.22713426 0.14333302 -0.3444294 0.24805813 0.23537748 -0.28658122
0.667643 -0.6447813 0.6462123 -0.9523439 0.5051734 -0.39958778 -0.043130133 0.09169206
0.46839836 -0.4982184 0.470655 -0.25993085 0.9152891 -0.9662605 0.34700578 -0.5650289
00000000: 9852 cebe 3081 ac3e e767 693e 47a5 b7be
00000010: e39b c53e 0b26 afbe ed3e 3bbe 4824 12bd
00000020: 5b76 fe3e a253 13bf 21ff 43bd 2e94 813e
00000030: 07ea 78be 2cec 883e 94dd 033f 5323 00bf
00000040: d2eb 5e3f 2d35 89bf 4e1c 92be eb9d c43e
00000050: 53d8 f6bd cc4a a03e 5d38 cdbe 4e18 993e
00000060: 227a 1dbd 3b95 c93d 2fb9 193f 054a 4abf
00000070: cd15 d73e 9b9d 3bbf 54d1 41bd e39e 6d3e
00000080: be8d 82be b64c 7cbd fceb 043f c685 cbbe
00000090: 7c3c 8b3e fb7b e8be 282f 74be f540 203d
000000a0: 0b0a 383f 2b63 54bf bde9 1c3f 071a 3abf
000000b0: ede4 683f 283d 32bf 1b08 f43e 5e83 b2be
000000c0: e253 5e3f b1c7 6dbf 05ef b1bd d7cd ad3e
000000d0: 515e 7c3f e07f 21bf 4a49 c93e d2da 89be
000000e0: 301b da3e 4ac1 5abe b26b 2a3f 58b2 38bf
000000f0: 8aaa 673e 4223 ac3c d03f d83e 1b0e 29be
00000100: 3de4 213e 62d4 423e 9419 6f3e b08f 2dbe
00000110: 773a 57be 3d84 92bd 8370 dabe 46b6 de3e
00000120: 8c4c cf3e 4af5 bfbe 2356 713f 804b 38bf
00000130: 2506 69be 1913 9e3e 5917 c9be 7d60 de3d
00000140: 9973 173f bc96 c0be 26c7 13be 0b62 b53e
00000150: b77d d93e 6e87 eabd 7155 8f3d aa53 b9be
00000160: 9d7a 8ebe 0ea7 8a3e 2ed8 dd3e 9bc2 12bf
00000170: 4e84 5c3f af3b 43bf 40b7 933f 1cfc 85bf
00000180: 18f0 8e3e ac69 d9be 3224 ab3e 8da6 bcbe
00000190: e2ed 6e3e d63a b6be 11f7 b83e 09e6 cebe
000001a0: 501b fb3e 2291 6cbe e295 68be e4c5 123e
000001b0: 0d59 b0be f302 7e3e cb06 713e c6ba 92be
000001c0: a7ea 2a3f 6310 25bf 2b6e 253f cfcc 73bf
000001d0: 0b53 013f c596 ccbe 39a9 30bd 0cc9 bb3d
000001e0: e9d1 ef3e 7b16 ffbe b1f9 f03e a815 85be
000001f0: 6350 6a3f d95c 77bf beaa b13e bca5 10bf

model/output_B/BiasAdd/ReadVariableOp:0 f4 [2]
0.092084706 -0.07094676
00000000: e896 bc3d 894c 91bd

model/output_A/MatMul/ReadVariableOp:0 f4 [64, 2]
-0.33204415 -0.020612057 -0.4007148 0.28055087 0.3260378 -0.42628047 -0.058980215 -0.35039285
0.34640092 -0.62328655 -0.2475054 0.4251306 0.06740972 0.42114365 0.41207674 -0.50945944
1.155208 -0.8509362 0.13319568 0.26094902 -0.18390249 0.29672658 -0.3300849 -0.07148684
-0.19328119 0.23102407 0.48059344 -0.53345805 -0.21307582 0.2854178 0.47534215 -0.6098871
-0.17705636 0.17758918 0.29699442 -0.490191 0.20898253 -0.06879174 -0.17821848 0.29830965
-0.061331093 -0.12356391 0.62484115 -0.54228806 0.73415756 -1.0725644 0.3416504 -0.09425096
0.11447535 0.032896254 0.16400033 0.39705285 0.64804286 -0.5862309 0.17878132 -0.114161454
-0.24405484 0.41845605 -0.0076636355 0.08130573 0.46294507 -0.42049116 -0.3644124 0.24442805
-0.3983542 0.17668054 0.18533753 0.09394773 -0.3324714 0.3261069 -0.08596744 0.27259
0.0008351992 -0.11839663 -0.19999683 -0.26947272 -0.014287353 0.42445266 -0.1220542 0.3087557
-0.12758698 -0.2201623 -0.22619092 0.28651613 0.082571596 0.010167566 0.42746827 -0.356266
-0.21941899 -0.2954556 0.36128703 -0.2866247 0.49267155 -0.69824654 0.6925445 -0.83025926
0.4254994 -0.41833216 0.1002676 -0.0078927325 0.06281047 0.025843345 0.31275487 -0.49655715
-0.14748006 0.41096747 -0.50573957 0.0051829116 -0.23331928 -0.06899753 -0.03256164 -0.13142368
0.5172844 -0.43584988 0.5494263 -0.47595194 0.29472834 -0.06347055 0.13339578 0.30134806
-0.18379192 -0.23791842 0.1588169 -0.4326204 0.6021359 -0.5809136 0.13398518 -0.4699638
00000000: b101 aabe 9eda a8bc 7e2a cdbe 5da4 8f3e
00000010: 6dee a63e 6f41 dabe 3d95 71bd b166 b3be
00000020: 765b b13e b58f 1fbf 0e72 7dbe b8aa d93e
00000030: 1b0e 8a3d 24a0 d73e b9fb d23e ef6b 02bf
00000040: dbdd 933f f4d6 59bf 7364 083e 1c9b 853e
00000050: ef50 3cbe 8cec 973e e300 a9be b167 92bd
00000060: 81eb 45be 9391 6c3e 5810 f63e b590 08bf
00000070: 8c30 5abe 4822 923e 0c60 f33e 9021 1cbf
00000080: 434e 35be f0d9 353e a70f 983e 51fa fabe
00000090: 84ff 553e afe2 8cbd e87e 36be 0bbc 983e
000000a0: 5036 7bbd 130f fdbd 97f5 1f3f 64d3 0abf
000000b0: c0f1 3b3f ca49 89bf cdec ae3e a606 c1bd
000000c0: 0d72 ea3d 39be 063d b4ef 273e 834a cb3e
000000d0: 23e6 253f 3a13 16bf 7312 373e 7bcd e9bd
000000e0: 83e9 79be df3f d63e 3c1f fbbb 9e83 a63d
000000f0: 2307 ed3e 9e4a d7be 4394 babe 594b 7a3e
00000100: 15f5 cbbe beeb 343e 1fc9 3d3e ab67 c03d
00000110: b139 aabe 7cf7 a63e b20f b0bd eb90 8b3e
00000120: 45f1 5a3a ef79 f2bd f8cb 4cbe 54f8 89be
00000130: 8015 6abc dc51 d93e 8df7 f9bd 3a15 9e3e
00000140: 29a6 02be 3a72 61be 989e 67be 3eb2 923e
00000150: 4c1b a93d dd95 263c 1fdd da3e 7f68 b6be
00000160: 5faf 60be f545 97be 9dfa b83e 79c0 92be
00000170: 723f fc3e 49c0 32bf 994a 313f df8b 54bf
00000180: 0fdb d93e a22f d6be 1959 cd3d 8550 01bc
00000190: c7a2 803d 6cb5 d33c 6821 a03e bd3c febe
000001a0: 0305 17be 546a d23e 2678 01bf 6ad5 a93b
000001b0: 40eb 6ebe 944e 8dbd 5b5f 05bd ee93 06be
000001c0: c06c 043f b727 dfbe 34a7 0c3f f9af f3be
000001d0: a2e6 963e d9fc 81bd e798 083e 4b4a 9a3e
000001e0: f333 3cbe e3a0 73be e6a0 223e 6c80 ddbe
000001f0: 9425 1a3f c1b6 14bf 6933 093e 189f f0be

model/output_A/BiasAdd/ReadVariableOp:0 f4 [2]
-0.10350254 0.10350252
00000000: 24f9 d3bd 21f9 d33d

model/dense_1/MatMul/ReadVariableOp:0 f4 [256, 64]
-0.2987694 0.11601588 -0.044476442 -0.060675252 -0.05549426 -0.4403017 -0.37132305 -0.15667614
-0.19887869 -0.29833743 -0.23397358 -0.37919992 -0.18718922 -0.22101216 0.14630578 -0.18634133
-0.13068406 0.012758446 -0.1700428 -0.0011361049 0.23296386 -0.19019108 0.015581401 -0.11161818
0.28142586 -0.42252067 0.011402938 -0.0062434566 -0.089412004 0.25282544 -0.09257998 0.091660574
-0.12695219 -0.04571525 -0.022991538 -0.40600914 -0.06278296 0.17769857 -0.34752756 -0.29012772
-0.070209354 -0.35106954 -0.09559665 -0.051459834 -0.27482826 -0.07487916 -0.26412106 -0.16278952
-0.14348349 -0.0592866 0.063613184 -0.12602071 0.037519615 -0.3230555 -0.32028404 0.12617615
-0.24393141 -0.1317144 -0.013286917 -0.2062029 0.24975784 0.019731775 -0.26130334 -0.024565449
0.29337364 -0.42708647 -0.06363969 0.049076825 0.08059785 0.24196689 0.19593658 0.114223264
0.04544228 0.30555296 0.17650788 0.34416622 0.0688381 0.30189574 -0.41419426 0.024741786
0.24099885 -0.15206444 -0.01831152 0.2491442 -0.1993973 0.07764397 0.04827991 -0.063057974
-0.36251244 0.17628834 0.2412534 0.046833158 -0.3521085 -0.29721594 0.005488314 -0.27849498
-0.024053141 0.0016687023 0.119146466 0.3176526 -0.066054426 -0.3667155 0.32373664 0.3004065
0.16339551 0.16803841 -0.14745815 -0.17763512 0.04126979 0.03866502 0.115207314 0.27793503
0.023180412 -0.15964152 -0.18124965 -0.03272599 -0.3553296 0.34034932 0.3450104 -0.030926697
-0.057623725 0.32065946 0.0040627234 0.2258454 -0.2679322 0.028551493 0.23837917 -0.098713614
0.1247001 0.061545454 0.06507733 0.0030454225 0.06920925 0.16864535 0.12340409 -0.10304361
0.19912307 0.06610657 -0.011544645 0.044434905 0.044906203 -0.2726348 0.15726265 -0.03388903
0.029377343 0.26905945 -0.008704858 -0.002480284 0.16248837 -0.13566066 0.3063355 -0.16319415
0.3286253 0.025764834 -0.28912833 -0.036803253 -0.05568042 -0.025467716 0.14800751 0.15296222
-0.06512016 0.2778608 -0.031721596 -0.091555685 0.044822935 0.10923603 0.10419909 -0.10069453
0.09463154 0.0066025523 0.20867789 0.13317089 0.060215116 -0.25678518 -0.2318531 -0.44543982
0.009873772 0.13432354 0.24957265 0.032356367 0.16238005 0.054012988 0.08924102 0.267575
0.33885232 -0.16088067 -0.08008258 0.13242248 0.092169434 -0.09216324 -0.47619382 -0.00064712344
0.31637728 -0.16087544 0.07810702 0.091819115 -0.32731935 0.16595253 0.086555906 0.01918997
-0.39079657 0.34183866 -0.0903541 0.12766647 -0.05692135 0.19118156 -0.31937385 0.27742067
0.057286926 -0.19073056 0.1586639 -0.0644003 -0.5646115 0.26899135 -0.4604383 0.22608426
-0.50872105 0.1885802 0.16802393 0.065044165 -0.07306907 -0.46104455 0.29842776 -0.15809895
-0.15180586 0.07925589 -0.033729564 0.12658843 0.110472776 -0.5069737 0.07775691 0.011426944
0.16504335 -0.012864268 0.09580119 0.08838563 0.10647378 0.041515328 0.33712053 0.25018892
0.11585896 0.184833 0.0249557 0.30563885 -0.25118524 0.2459662 0.12395331 0.14903899
-0.29372883 0.16499941 0.12252613 -0.04707268 -0.3237192 0.10965736 0.14658743 0.16338122
00000000: 4ef8 98be bc99 ed3d ee2c 36bd 9d86 78bd
00000010: f34d 63bd 396f e1be 0e1e bebe b66f 20be
00000020: dba6 4bbe afbf 98be c596 6fbe 7e26 c2be
00000030: 88ae 3fbe 0351 62be 2fd1 153e 43d0 3ebe
00000040: 0bd2 05be cd08 513c b31f 2ebe 5be9 94ba
00000050: 148e 6e3e 73c1 42be 2249 7f3c 1398 e4bd
00000060: 0d17 903e a154 d8be 63d3 3a3c e995 ccbb
00000070: a41d b7bd 5672 813e 939a bdbd 8ab8 bb3d
00000080: c1ff 01be ea3f 3bbd c058 bcbc 6ee0 cfbe
00000090: 5a94 80bd 9df6 353e 22ef b1be 9f8b 94be
000000a0: ecc9 8fbd 63bf b3be 2dc8 c3bd 8cc7 52bd
000000b0: 4ab6 8cbe 3f5a 99bd e03a 87be 4cb2 26be
000000c0: 56ed 12be 82d6 72bd a147 823d 930b 01be
000000d0: 2bae 193d 8867 a5be 45fc a3be 5234 013e
000000e0: 28c9 79be 24e0 06be 5eb1 59bc da26 53be
000000f0: 85c0 7f3e 88a4 a13c 8dc9 85be 7b3d c9bc
00000100: 1235 963e 14ab dabe 8755 82bd c804 493d
00000110: 7c10 a53d 2bc6 773e 99a3 483e e3ed e93d
00000120: af21 3a3d 7071 9c3e 7bbe 343e 8e36 b03e
00000130: fdfa 8c3d 1492 9a3e 4511 d4be 49af ca3c
00000140: 67c8 763e c8b6 1bbe 0a02 96bc a81f 7f3e
00000150: ce2e 4cbe cd03 9f3d 28c1 453d 8a24 81bd
00000160: 3b9b b9be ee84 343e 220b 773e 20d4 3f3d
00000170: 9147 b4be b02c 98be 51d7 b33b e596 8ebe
00000180: 180b c5bc 5cb8 da3a 1003 f43d 5da3 a23e
00000190: 8b47 87bd 22c2 bbbe cfc0 a53e e1ce 993e
000001a0: 2751 273e 4312 2c3e 45ff 16be fbe5 35be
000001b0: 830a 293d 365f 1e3d d0f1 eb3d 804d 8e3e
000001c0: d9e4 bd3c 1179 23be 8299 39be b00b 06bd
000001d0: c3ed b5be 4442 ae3e 34a5 b03e fc59 fdbc
000001e0: db06 6cbd 7a2d a43e 9820 853b 0444 673e
000001f0: 692e 89be d2e4 e93c ab19 743e 5d2a cabd
00000200: c462 ff3d 1617 7c3d 4347 853d b695 473b
00000210: 94bd 8d3d 5eb1 2c3e 49bb fc3d 8708 d3bd
00000220: ebe6 4b3e e262 873d c025 3dbc 6001 363d
00000230: 91ef 373d ca96 8bbe 7609 213e 39cf 0abd
00000240: c1a8 f03c 29c2 893e d29e 0ebc 438c 22bb
00000250: 5a63 263e a1ea 0abe 02d8 9c3e 5e1c 27be
00000260: 9341 a83e c610 d33c a108 94be 02bf 16bd
00000270: 2711 64bd aca1 d0bc 488f 173e 21a2 1c3e
00000280: b85d 85bd c543 8e3e 81ee 01bd 8c81 bbbd
00000290: 4198 373d 24b7 df3d 5566 d53d ef38 cebd
000002a0: 2ece c13d 395a d83b a8af 553e f35d 083e
000002b0: 20a4 763d 5979 83be e66a 6dbe b010 e4be
000002c0: 9ac5 213c 1c8c 093e f98f 7f3e 1c88 043d
000002d0: f546 263e b93c 5d3d ffc3 b63d 97ff 883e
000002e0: 0d7e ad3e e7bd 24be 5602 a4bd c299 073e
000002f0: 54c3 bc3d 15c0 bcbd adcf f3be b8a3 29ba
00000300: 34fc a13e 88bc 24be 93f6 9f3d a90b bc3d
00000310: 6796 a7be 76ef 293e 3944 b13d 4934 9d3c
00000320: 7d16 c8be 7a05 af3e 920b b9bd 00bb 023e
00000330: 5d26 69bd 19c5 433e f884 a3be 150a 8e3e
00000340: b2a5 6a3d df4e 43be ca78 223e 4ee4 83bd
00000350: 618a 10bf 3cb9 893e 92be ebbe a282 673e
00000360: 8b3b 02bf 2b1b 413e 770e 2c3e e035 853d
00000370: 3da5 95bd 080e ecbe 86cb 983e b1e4 21be
00000380: ff72 1bbe e950 a23d 0328 0abd 66a0 013e
00000390: 8d3f e23d 07c9 01bf 043f 9f3d 1438 3b3c
000003a0: 2001 293e a7c4 52bc 6a33 c43d 8603 b53d
000003b0: ed0e da3d fa0b 2a3d 109b ac3e c318 803e
000003c0: 7647 ed3d dd44 3d3e e56f cc3c b27c 9c3e
000003d0: 5a9b 80be 90de 7b3e 3cdb fd3d ad9d 183e
000003e0: a063 96be 9bf5 283e fbee fa3d 48cf 40bd
000003f0: 86be a5be 0a94 e03d 041b 163e 684d 273e

model/dense_1/BiasAdd/ReadVariableOp:0 f4 [64]
0.005398019 -0.20521298 0.083661474 -0.083518155 -0.13729806 -0.043981653 -0.038134847 0.031058576
-0.33883148 0.016075572 -0.075686395 -0.0006524877 -0.05493654 0.070508845 -0.16983406 0.07440357
-0.063964956 -0.03821467 0.13919912 -0.009120278 -0.115394995 0.08571305 -0.33819664 0.053533893
-0.1670474 0.011317284 0.036809083 0.023244224 -0.16970398 -0.14042784 0.1078461 -0.1800539
-0.09410964 0.049273457 -0.025015978 -0.07530628 0.03676431 -0.16174117 -0.05223368 -0.043828018
0.08922716 -0.06718851 -0.009227873 0.0729507 -0.047272053 0.011687747 0.08929271 0.08675312
0.07945689 0.024437252 0.040038556 0.16625883 -0.18332769 0.012394747 -0.0962688 0.04303497
-0.2184967 0.057067804 0.12848291 -0.049804423 -0.094448 0.0017450923 0.060007855 0.07243969
00000000: dee1 b03b 5a23 52be b556 ab3d 910b abbd
00000010: dd97 0cbe 1b26 34bd 4933 1cbd 8e6e fe3c
00000020: 527b adbe ebb0 833c 7801 9bbd b50b 2bba
00000030: 2305 61bd f166 903d fbe8 2dbe e660 983d
00000040: 0f00 83bd fc86 1cbd 378a 0e3e 386d 15bc
00000050: 3654 ecbd 538a af3d 1c28 adbe 5b46 5b3d
00000060: 790e 2bbe 216c 393c 1fc5 163d ac6a be3c
00000070: e1c6 2dbe 51cc 0fbe 6bde dc3d 0d60 38be
00000080: 8ebc c0bd f7d2 493d 4fee ccbc 2e3a 9abd
00000090: 2c96 163d 7a9f 25be fcf2 55bd 0285 33bd
000000a0: bbbc b63d 219a 89bd 8130 17bc 2d67 953d
000000b0: 57a0 41bd f77d 3f3c 19df b63d 9fab b13d
000000c0: 4bba a23d a230 c83c 78ff 233d c13f 2a3e
000000d0: 41ba 3bbe 5613 4b3c 9428 c5bd 7045 303d
000000e0: 99bd 5fbe eebf 693d 0691 033e b9ff 4bbd
000000f0: f46d c1bd 95bb e43a ccca 753d 435b 943d

model/dense/MatMul/ReadVariableOp:0 f4 [6, 256]
0.43230674 -0.29322037 0.18897015 -0.1189001 -0.022189593 0.040409863 -0.2817767 0.0025365725
-0.053008072 -0.3480535 0.14067395 -0.12415711 -0.20638297 0.13392887 -0.13733271 -0.3818255
0.37172604 -0.2560318 -0.12355938 -0.1265017 0.33253717 0.16204472 0.2149429 -0.30398077
-0.22503906 -0.28587106 -0.17287691 0.3149295 0.047276046 -0.19025028 0.32136434 0.31410357
0.37143624 0.069965325 0.057642728 0.30140856 0.21145074 -0.2480596 -0.07316074 0.09527065
0.08677096 -0.2549227 -0.21163249 -0.0193397 -0.17749268 0.1477073 0.041585427 -0.10519919
-0.122590385 0.05575104 0.07354773 -0.034322567 0.10293783 0.35839245 0.15376891 0.16472934
-0.15481332 0.22817218 -0.15174533 0.08476944 0.12531061 -0.15036736 -0.26514018 -0.111683965
0.10423568 0.13504301 0.2972923 -0.084523074 0.22541186 -0.24999844 -0.22047704 0.14344275
-0.23042673 0.08843632 -0.027087923 0.3833736 0.08288362 -0.22415642 0.068671696 0.19320069
0.21863683 0.2086398 -0.23036796 -0.082229994 -0.04796128 0.18916944 0.41982925 0.335999
-0.32293156 -0.10537774 0.10894083 0.06416709 -0.5351186 -0.34253913 0.22400008 0.010683191
-0.055421084 0.273529 -0.04449523 -0.30565903 0.050549425 -0.39073074 0.28767604 -0.15976335
0.28722224 0.112259 0.3251343 -0.11344829 -0.01408762 0.32339197 -0.27441502 0.026082497
0.2807127 0.27660948 -0.38242435 0.28370497 0.08898835 -0.1514838 0.15856422 -0.23908603
-0.35701078 0.44859555 0.2941016 0.2035448 0.2364375 -0.5001911 0.24280643 0.014957424
0.21024756 -0.22769359 0.008587288 -0.3118985 -0.26268893 0.15698114 0.3262941 0.12508859
0.4766244 -0.15062422 0.31643888 0.3854033 0.17801495 -0.022481617 -0.18393806 -0.35423177
-0.19008814 -0.009731704 0.03357088 -0.32487556 -0.26162225 0.21600842 -0.20987281 -0.01297512
-0.30525926 -0.016890043 0.18487328 0.28703707 0.03607836 0.26402164 -0.32913557 -0.08591407
-0.20450668 0.108208016 0.25938153 -0.2934291 -0.12974812 -0.1310912 -0.03498635 -0.16207077
-0.25444356 -0.28530228 0.17016043 -0.15818307 0.17580731 -0.38565725 0.15171501 0.38999495
0.092559546 0.02565812 0.19095325 0.3697446 -0.23525412 -0.11446035 0.3287841 0.22077735
-0.2857885 0.16703665 0.20864739 0.12213229 -0.24522214 0.10297943 0.02272659 0.15755373
0.17876492 -0.263484 -0.14518544 -0.26975688 -0.21712875 -0.3163702 0.1336869 0.28386268
-0.13605168 0.28512344 -0.15785894 0.3019003 0.33323634 0.18051529 0.031917058 0.117451206
0.1833299 -0.13163291 0.32245368 0.14028257 -0.39436972 0.16324167 -0.020895422 0.1577232
0.08609203 0.17015395 0.2369634 0.1915447 0.1753768 0.007857038 0.151231 -0.30632722
0.2869491 -0.107365 -0.09986104 -0.033814028 0.16175736 -0.13386473 0.021278573 0.2731838
-0.26448354 0.08421867 -0.38824874 0.22995795 0.20313807 0.35113093 0.20906195 0.06750474
0.038507357 -0.050893612 0.21855119 -0.12350983 0.044465613 0.23934382 -0.00063854863 0.38346583
-0.45743397 -0.23787293 0.17949662 0.108754866 0.43112203 -0.34584406 0.25547248 0.46098146
00000000: 4f57 dd3e fb20 96be 6481 413e e581 f3bd
00000010: f3c6 b5bc d084 253d 0945 90be a03c 263b
00000020: fe1e 59bd 1134 b2be d50c 103e 1546 febd
00000030: 0f56 53be a624 093e f2a0 0cbe a27e c3be
00000040: e052 be3e 9a16 83be b30c fdbd a989 01be
00000050: 5042 aa3e 0def 253e fe19 5c3e 5ea3 9bbe
00000060: a470 66be b15d 92be a506 31be 703e a13e
00000070: 87a4 413d f8d0 42be de89 a43e 2fd2 a03e
00000080: e42c be3e fb49 8f3d c81a 6c3d 3952 9a3e
00000090: 8b86 583e 5603 7ebe 4cd5 95bd 421d c33d
000000a0: f9b4 b13d 3a85 82be 30b6 58be 4a6e 9ebc
000000b0: a4c0 35be 9540 173e 7b55 2a3d ac72 d7bd
000000c0: ab10 fbbd 345b 643d 31a0 963d d295 0cbd
000000d0: 12d1 d23d 377f b73e 9975 1d3e cfae 283e
000000e0: 6287 1ebe f8a5 693e 2163 1bbe 9a9b ad3d
000000f0: 6d51 003e e7f9 19be 74c0 87be 90ba e4bd
00000100: 8479 d53d b748 0a3e b236 983e 6f1a adbd
00000110: 5ed2 663e 97ff 7fbe bcc4 61be a8e2 123e
00000120: fcf4 6bbe 1a1e b53d 7ee7 ddbc 8b49 c43e
00000130: e3be a93d 4389 65be bfa3 8c3d 67d6 453e
00000140: 55e2 5f3e aca5 553e 94e5 6bbe 3368 a8bd
00000150: 0c73 44bd a2b5 413e dcf3 d63e 1008 ac3e
00000160: 4957 a5be 49d0 d7bd 5f1c df3d 096a 833d
00000170: 88fd 08bf 4a61 afbe 4760 653e 8d08 2f3c
00000180: 3801 63bd fe0b 8c3e a140 36bd 577f 9cbe
00000190: ea0c 4f3d dc0d c8be 464a 933e 0199 23be
000001a0: cb0e 933e 0ce8 e53d 0178 a63e 9457 e8bd
000001b0: c3cf 66bc a293 a53e 2080 8cbe f6aa d53c
000001c0: 93b9 8f3e c29f 8d3e 20cd c3be c741 913e
000001d0: 863f b63d 921e 1bbe a95e 223e f8d2 74be
000001e0: 1eca b6be 51ae e53e 7c94 963e 0c6e 503e
000001f0: ac1c 723e 860c 00bf 40a2 783e fc0f 753c
00000200: 234b 573e 8228 69be b2b1 0c3c 29b1 9fbe
00000210: 2a7f 86be aabf 203e 0510 a73e 3917 003e
00000220: 1d08 f43e 3c3d 1abe 4704 a23e 9553 c53e
00000230: 8d49 363e 5e2b b8bc 425a 3cbe de5d b5be
00000240: 77a6 42be ba71 1fbc 9e81 093d 1756 a6be
00000250: 5af3 85be 5031 5d3e e6e8 56be 9995 54bc
00000260: f14a 9cbe fd5c 8abc 6c4f 3d3e 86f6 923e
00000270: e7c6 133d d82d 873e 7584 a8be b7f3 afbd
00000280: 336a 51be 2a9c dd3d a8cd 843e 573c 96be
00000290: b1dc 04be c63c 06be d94d 0fbd e1f5 25be
000002a0: 6d46 82be 2413 92be 893e 2e3e befa 21be
000002b0: d506 343e de74 c5be 2e5b 1b3e 6bad c73e
000002c0: dc8f bd3d fa30 d23c 4089 433e 2a4f bd3e
000002d0: 75e6 70be 306a eabd 6456 a83e 7513 623e
000002e0: df52 92be a80b 2b3e a9a7 553e 7e20 fa3d
000002f0: 831b 7bbe e1e6 d23d 1d2d ba3c c455 213e
00000300: 270e 373e 60e7 86be 7eab 14be 931d 8abe
00000310: 0057 5ebe 46fb a1be 38e5 083e 7356 913e
00000320: 2251 0bbe b3fb 913e c6a5 21be ad92 9a3e
00000330: f49d aa3e 00d9 383e 76bb 023d 428a f03d
00000340: d5ba 3b3e c7ca 06be a618 a53e 3ca6 0f3e
00000350: d4ea c9be d328 273e e02c abbc 3182 213e
00000360: 0551 b03d d63c 2e3e 89a6 723e 4b24 443e
00000370: fa95 333e ceba 003c 4ddc 1a3e ecd6 9cbe
00000380: feea 923e 2ee2 dbbd f283 ccbd 9480 0abd
00000390: b9a3 253e d613 09be 6750 ae3c bfde 8b3e
000003a0: 636a 87be d77a ac3d 8ac8 c6be 197a 6b3e
000003b0: 6d03 503e 6fc7 b33e 5614 563e ed3f 8a3d
000003c0: e4b9 1d3d d275 50bd e2cb 5f3e b9f2 fcbd
000003d0: 9321 363d 8c16 753e 4664 27ba a255 c43e
000003e0: c934 eabe f694 73be f6cd 373e dfba de3d
000003f0: 07bc dc3e 7912 b1be 4acd 823e c305 ec3e

model/dense/BiasAdd/ReadVariableOp:0 f4 [256]
-0.05323384 0.20040123 -0.13958654 0.30155948 -0.27033746 0.16399091 0.28946394 -0.1973029
-0.1664282 0.18665175 -0.06387171 0.05060777 0.23278354 -0.1977362 0.010120686 0.22692457
-0.10520459 0.3052094 -0.22560585 0.18096256 0.013085301 -0.18737297 -0.20241055 0.13883154
0.2006393 -0.11155506 0.32225353 -0.15811251 -0.03900928 -0.07364478 -0.14620464 -0.15870729
-0.14542942 0.2280999 0.059334833 -0.18943955 -0.17240234 -0.02240708 0.1834929 -0.16944966
-0.07715144 0.21992002 0.33399436 -0.15764835 0.14530623 -0.20539911 0.196461 -0.19822209
0.27508104 0.22304085 0.29565126 0.27397957 0.124858126 -0.14313453 -0.03868643 0.0095790615
0.07013653 -0.021769911 0.228108 -0.12458618 -0.08614627 -0.07565428 0.24490137 -0.055018622
0.17136332 -0.14480539 -0.21104997 0.23867637 0.08816722 0.30256987 0.22882424 -0.222781
0.2545899 -0.102954 0.005996408 -0.15549356 0.16086736 0.20804971 0.22883327 0.10697848
-0.20120312 -0.1664754 0.22263747 0.20919594 -0.126514 -0.1495713 -0.09719994 0.16708638
0.19954762 -0.25568935 -0.19799379 0.035233162 0.16385488 0.23318607 0.22278807 -0.12621777
0.22029077 -0.15751646 -0.108822554 0.25751132 -0.2072227 -0.07075791 -0.11402036 0.27062187
-0.15668947 0.16870405 -0.0955676 0.20992553 -0.21651703 -0.1433114 0.19255826 -0.16596438
-0.11574918 -0.2212909 0.13144012 -0.11210935 0.24236467 -0.029061794 -0.18101813 0.20819247
0.18710981 -0.14932995 -0.10777798 -0.21382344 -0.04967537 0.16746695 -0.18929529 -0.16536382
-0.19712335 0.3197587 0.30676332 0.22194509 0.27088827 0.124545276 0.13828537 -0.14464583
-0.11447272 0.2895325 -0.16687997 -0.15718779 -0.04183652 0.2636027 0.15915781 0.22433609
0.20146869 0.17603461 0.18190333 0.26831788 0.26519394 -0.22669771 0.18467559 0.06439475
0.11879026 -0.19297342 -0.13109139 -0.1596403 0.2596076 0.009308744 0.27304712 0.24441017
0.18697438 -0.16212894 -0.112097405 0.18523698 0.23368913 0.27878463 -0.12542412 -0.17423777
0.26101658 0.20553085 0.08551082 0.18883462 0.026466113 0.17334525 -0.121995874 0.08608463
-0.16229612 0.12722553 -0.21709563 -0.15171583 0.28609896 0.17130268 -0.1758387 -0.21305834
0.21208496 -0.16922916 -0.2450777 0.06568713 -0.16474016 -0.19089001 0.28680095 -0.23359816
-0.23035525 0.20215297 0.17074959 0.27685755 0.23945808 0.13934322 -0.14868313 -0.14547718
-0.083572045 -0.15413797 0.24132842 -0.15059274 0.0215475 0.2535089 -0.19129378 -0.17089398
-0.15231499 -0.21681115 -0.115921386 -0.16143413 0.11142655 -0.15828285 -0.2533353 -0.22182453
0.26147196 -0.07927916 0.09483933 -0.25731233 0.014072703 0.28522003 0.06595387 0.18532917
-0.14980023 0.21129246 0.37290418 -0.19773965 -0.26282722 0.20986512 -0.1504648 -0.2308525
0.25936136 0.15835793 0.19261669 -0.23747359 -0.1669466 -0.15994672 -0.1592362 -0.18454953
-0.13790551 0.046918646 0.20749246 0.0022920861 -0.12311621 -0.13099098 0.24430867 -0.09893083
0.16263832 -0.059183434 -0.19381528 -0.21249785 -0.11339281 0.17966934 -0.099000916 -0.05400779
00000000: ba0b 5abd fb35 4d3e c6ef 0ebe 0166 9a3e
00000010: ac69 8abe 3ced 273e 9e34 943e c509 4abe
00000020: 276c 2abe a321 3f3e 2ccf 82bd 184a 4f3d
00000030: cf5e 6e3e 5c7b 4abe 3cd1 253c ea5e 683e
00000040: 8175 d7bd 6844 9c3e 3805 67be 404e 393e
00000050: bb63 563c b3de 3fbe b644 4fbe db29 0e3e
00000060: 6374 4d3e fb76 e4bd 6afe a43e 3fe8 21be
00000070: 32c8 1fbd 13d3 96bd abb6 15be 2a84 22be
00000080: 73eb 14be 0593 693e 1509 733d 71fc 41be
00000090: 3d8a 30be 0d8f b7bc 90e5 3b3e 3684 2dbe
000000a0: 9301 9ebd b732 613e 4f01 ab3e 926e 21be
000000b0: 28cb 143e 2554 52be 132d 493e bbfa 4abe
000000c0: 6cd7 8c3e d264 643e 9a5f 973e 0d47 8c3e
000000d0: 9eb5 ff3d dc91 12be a975 1ebd 7ff1 1c3c
000000e0: bea3 8f3d d056 b2bc 2595 693e 0a27 ffbd
000000f0: 756d b0bd a2f0 9abd 6dc7 7a3e 355b 61bd
00000100: de79 2f3e dd47 14be 7c1d 58be 9467 743e
00000110: 0491 b43d 70ea 9a3e e750 6a3e b420 64be
00000120: 9b59 823e 8cd9 d2bd 847d c43b b439 1fbe
00000130: 6aba 243e fc0a 553e 4553 6a3e 8917 db3d
00000140: 3108 4ebe 8778 2abe 14fb 633e 7637 563e
00000150: e38c 01be 3829 19be c310 c7bd b118 2b3e
00000160: 3656 4c3e b7e9 82be e2be 4abe a650 103d
00000170: 93c9 273e 54c8 6e3e 8e22 643e 3b3f 01be
00000180: e793 613e ff4b 21be 5cde debd 86d8 833e
00000190: 3032 54be 86e9 90bd 8283 e9bd f38e 8a3e
000001a0: 3473 20be c1c0 2c3e f2b8 c3bd b8f6 563e
000001b0: a4b6 5dbe 39c0 12be fe2d 453e 91f2 29be
000001c0: e80d edbd 159a 62be 3d98 063e 9699 e5bd
000001d0: 722e 783e 0013 eebc d15c 39be 6830 553e
000001e0: b799 3f3e f3e9 18be b4ba dcbd 88f4 5abe
000001f0: 6778 4bbd 757c 2b3e a0d6 41be 2255 29be
00000200: b4da 49be 6ab7 a33e 1510 9d3e 9345 633e
00000210: deb1 8a3e 9811 ff3d ae9a 0d3e 091e 14be
00000220: ac70 eabd 9b3d 943e 95e2 2abe d6f5 20be
00000230: c55c 2bbd eff6 863e 44fa 223e 5cb8 653e
00000240: cf4d 4e3e 6b42 343e de44 3a3e f660 893e
00000250: 80c7 873e 7223 68be 991b 3d3e 65e1 833d
00000260: 4f48 f33d d39a 45be d23c 06be bf78 23be
00000270: 4aeb 843e b483 183c d5cc 8b3e a946 7a3e
00000280: 3676 3f3e 2105 26be 5393 e5bd c3ae 3d3e
00000290: 344c 6f3e dcbc 8e3e 2e6f 00be 636b 32be
000002a0: f7a3 853e ae76 523e 4c20 af3d dd5d 413e
000002b0: 76cf d83c 6b81 313e f9d8 f9bd 234d b03d
000002c0: f430 26be 6947 023e 514e 5ebe 655b 1bbe
000002d0: 907b 923e f869 2f3e 0f0f 34be f72b 5abe
000002e0: cd2c 593e 694a 2dbe a6f5 7abe f986 863d
000002f0: a5b1 28be ac78 43be 93d7 923e 5b34 6fbe
00000300: 3fe2 6bbe 3001 4f3e fbd8 2e3e 46c0 8d3e
00000310: 8034 753e fdaf 0e3e 6440 18be f8f7 14be
00000320: d227 abbd 58d6 1dbe cc1e 773e fc34 1abe
00000330: 6284 b03c ebcb 813e 84e2 43be d5fe 2ebe
00000340: 76f8 1bbe be03 5ebe 3168 edbd fd4e 25be
00000350: 9a33 e43d e614 22be 2ab5 81be f825 63be
00000360: a7df 853e 1d5d a2bd 1f3b c23d 71be 83be
00000370: 3291 663c 5c08 923e d312 873d eec6 3d3e
00000380: 3b65 19be 0d5d 583e 4ced be3e 437c 4abe
00000390: 4a91 86be e2e6 563e 7213 1abe 9964 6cbe
000003a0: 03cb 843e 9528 223e 4f3d 453e 472c 73be
000003b0: 0df4 2abe 13c9 23be d00e 23be 8dfa 3cbe
000003c0: 1a37 0dbe c42d 403d e778 543e d336 163b
000003d0: 5a24 fcbd 8022 06be 0d2c 7a3e 3f9c cabd
000003e0: a98a 263e 546a 72bd 8377 46be 0999 59be
000003f0: 7d3a e8bd 3dfb 373e fec0 cabd 4637 5dbd
