RL for adaptive video compression/RL_data/DSAC.onnx (onnx, 270029 bytes, 6 tensors)

onnx::Gemm_1 f4 [256, 2]
-0.0057634846 0.31411344 -0.35141745 -0.42642874 -0.14504996 0.69197273 0.19273712 0.12575585
-0.67536396 0.123223245 -0.21226889 0.075656176 0.02853246 0.39408472 -0.2826747 0.57154185
-0.11139141 0.49846655 -0.14215213 0.38969713 -0.6048178 0.32590002 -0.7060359 -0.5410963
-0.08927959 -0.19334722 0.59405196 -0.17782117 0.63898957 -0.23127516 -0.6743701 -0.1797691
0.471273 -0.6051669 -0.5431287 -0.19154519 -0.4853884 0.49009925 0.26320314 -0.28905952
0.040321223 -0.30770734 -0.6781339 -0.11683631 -0.6316172 0.052007973 -0.412014 -0.66237646
-0.55699927 -0.2601215 -0.37724143 -0.5284089 -0.17254364 0.10471386 0.07307863 0.054226793
-0.20298135 0.12545818 -0.00862548 0.26425618 0.6669103 0.5480911 -0.094937205 -0.6097113
-0.10211235 0.33008522 0.6817052 -0.55646545 -0.097403646 0.30435795 -0.07618582 -0.20432001
0.14679292 0.49806538 -0.5877256 0.316585 -0.057353694 0.28685743 0.027940772 0.29201293
0.41578096 -0.4434566 -0.41205725 0.47823924 0.23744752 0.033086307 0.6146825 0.22637022
-0.077509694 0.40437692 -0.03390193 -0.15777051 -0.5184337 0.48634928 0.6287131 0.5064647
-0.2575212 0.42876607 0.26122677 -0.16256341 0.2429088 0.13590457 -0.62163347 -0.1386149
-0.35533983 -0.3291082 -0.2609888 -0.005549073 0.4513993 0.11942649 0.45288834 0.33001912
-0.036443718 0.33340138 0.59751254 -0.2284494 0.60313016 -0.345944 -0.32469973 0.22093064
0.0033049 0.02121921 0.5975598 0.20174453 0.5218329 0.7016734 0.2982208 0.69959134
0.015536312 -0.105635926 0.15128048 -0.020826207 0.4611357 -0.6660972 0.60762656 0.5418304
0.4321062 -0.69499576 -0.30102012 0.07146633 -0.37945303 -0.35524762 0.20635024 -0.008369417
0.57808536 0.14490001 0.19066797 0.1576305 0.57123125 -0.5702337 0.101256944 0.6653695
0.46631193 -0.4289999 -0.6641054 -0.6091663 0.42707583 0.1727043 -0.0622748 0.63733655
-0.3659331 -0.5206695 -0.018291235 -0.30284464 0.4256641 -0.43597475 0.3241806 0.48312187
0.5275972 0.0659229 0.15586914 0.23162746 0.19548579 0.67146254 0.641739 0.384495
-0.7057339 0.29094207 -0.33292258 -0.613251 0.012962626 -0.36329955 -0.7030526 0.108679
0.114245154 -0.10989027 0.65199655 -0.4931228 0.32480538 0.2797273 0.3707976 -0.3924358
0.2915867 0.2581076 -0.5219117 0.35608405 0.40994465 -0.39830637 0.18099672 0.19080965
-0.2720117 -0.29077685 0.04118143 -0.19848223 0.5981911 0.6787797 -0.6201031 -0.68076366
0.46419227 0.6025481 0.2590859 -0.5583041 -0.11109877 -0.16305012 0.655054 0.059399005
0.13414784 -0.28841522 -0.3063984 -0.43095767 -0.17784232 0.20488375 0.17719726 -0.12857784
-0.6720685 -0.100635886 -0.47886252 0.5677236 0.06726903 -0.5232168 0.6496566 0.5774057
-0.22351214 -0.15993726 -0.10767776 0.27239662 -0.20459783 -0.20049077 0.027719462 -0.44924834
-0.20898151 -0.33569416 -0.68682164 -0.15960246 -0.28362772 0.7033544 -0.12112516 -0.35418946
0.67222846 -0.62883943 -0.57595944 -0.25268832 -0.59401625 -0.6886129 -0.190678 0.24245632
00000000: 9ddb bcbb 7ad3 a03e fdec b3be de54 dabe
00000010: fa87 14be 2025 313f e15c 453e 24c6 003e
00000020: a7e4 2cbf 785c fc3d 045d 59be a0f1 9a3d
00000030: e8bc e93c 79c5 c93e bdba 90be 9150 123f
00000040: 2e21 e4bd 0237 ff3e 5490 11be 6286 c73e
00000050: 57d5 1abf 5edc a63e c5be 34bf 4a85 0abf
00000060: 38d8 b6bd d0fc 45be ca13 183f c116 36be
00000070: d294 233f 65d3 6cbe 85a3 2cbf 6415 38be
00000080: b24a f13e 38ec 1abf 7c0a 0bbf 6c24 44be
00000090: d484 f8be 4aee fa3e 90c2 863e 9cff 93be
000000a0: de27 253d d18b 9dbe 2f9a 2dbf e047 efbd
000000b0: aab1 21bf 5006 553d 80f3 d2be 8191 29bf
000000c0: 8197 0ebf a52e 85be ca25 c1be ce45 07bf
000000d0: 48af 30be 3874 d63d 40aa 953d ea1c 5e3d
000000e0: 58da 4fbe 1c78 003e e351 0dbc 964c 873e
000000f0: a2ba 2a3f b34f 0c3f 706e c2bd 0a16 1cbf
00000100: 4820 d1bd ee00 a93e 3b84 2e3f 8574 0ebf
00000110: 907b c7bd ced4 9b3e 5007 9cbd 4439 51be
00000120: e250 163e 6d02 ff3e 2f75 16bf 6e17 a23e
00000130: b5eb 6abd fade 923e 0ce4 e43c b882 953e
00000140: 3ee1 d43e be0c e3be 2bf9 d2be c6db f43e
00000150: 7125 733e 8285 073d d55b 1d3f 98cd 673e
00000160: 67bd 9ebd 7e0a cf3e c0dc 0abd 988e 21be
00000170: 12b8 04bf c602 f93e 57f3 203f aca7 013f
00000180: d2d9 83be 3a87 db3e 84bf 853e 0677 26be
00000190: 16bd 783e 912a 0b3e 5f23 1fbf 10f1 0dbe
000001a0: 1aef b5be df80 a8be 53a0 85be 00d5 b5bb
000001b0: cf1d e73e e095 f43d fbe0 e73e 44f8 a83e
000001c0: 0246 15bd 96b3 aa3e 95f6 183f a4ee 69be
000001d0: bd66 1a3f 921f b1be 0b3f a6be a43b 623e
000001e0: 0597 583b e9d3 ad3c aef9 183f 1e96 4e3e
000001f0: d796 053f dea0 333f 66b0 983e 6b18 333f
00000200: 048c 7e3c a657 d8bd 45e9 1a3e b99b aabc
00000210: fa19 ec3e 5985 2abf 6a8d 1b3f 66b5 0a3f
00000220: 063d dd3e 3eeb 31bf 4f1f 9abe f05c 923d
00000230: ab47 c2be 04e3 b5be 7a4d 533e e11f 09bc
00000240: 67fd 133f ab60 143e 773e 433e e469 213e
00000250: 363c 123f d6fa 11bf cd5f cf3d a855 2a3f
00000260: 70c0 ee3e e0a5 dbbe d002 2abf 53f2 1bbf
00000270: afa9 da3e 65d9 303e dc13 7fbd 7d28 233f
00000280: 955b bbbe 994a 05bf 80d7 95bc 740e 9bbe
00000290: a5f0 d93e 1538 dfbe 00fb a53e c05b f73e
000002a0: 9c10 073f 9602 873d 299c 1f3e c02f 6d3e
000002b0: 6d2d 483e f8e4 2b3f 0249 243f 87dc c43e
000002c0: faaa 34bf 5cf6 943e d474 aabe 04fe 1cbf
000002d0: 3261 543c 6602 babe 41fb 33bf 1893 de3d
000002e0: 5df9 e93d 260e e1bd 3fe9 263f 977a fcbe
000002f0: e44c a63e 6b38 8f3e 2fd9 bd3e 58ed c8be
00000300: da4a 953e ae26 843e 019c 05bf a650 b63e
00000310: 44e4 d13e d0ee cbbe 3457 393e 9b63 433e
00000320: 1e45 8bbe b4e0 94be dcad 283d ed3e 4bbe
00000330: 0d23 193f 82c4 2d3f 14bf 1ebf 8746 2ebf
00000340: 9caa ed3e 9840 1a3f e8a6 843e 04ed 0ebf
00000350: c087 e3bd 9cf6 26be 9eb1 273f 5f4c 733d
00000360: 0d5e 093e 29ab 93be 40e0 9cbe 7ca6 dcbe
00000370: 4c1c 36be 0ccd 513e 3373 353e e9a9 03be
00000380: ae0c 2cbf 301a cebd 782d f5be 5556 113f
00000390: 58c4 893d 89f1 05bf e54f 263f dcd0 133f
000003a0: 5ee0 64be 98c6 23be 2886 dcbd 9277 8b3e
000003b0: 1882 51be 744d 4dbe ed13 e33c e103 e6be
000003c0: 40ff 55be 1be0 abbe 8bd3 2fbf d46e 23be
000003d0: a737 91be 090f 343f 7810 f8bd 5258 b5be
000003e0: 2a17 2c3f 9ffb 20bf 1472 13bf 5d60 81be
000003f0: 7311 18bf ef48 30bf 1841 43be 7846 783e

onnx::Gemm_2 f4 [256]
-0.235362 -0.46668345 -0.5212945 -0.14512692 0.6090655 0.48350355 -0.58737105 -0.15627933
-0.08280107 -0.7035458 -0.12377983 0.04132896 0.010104116 -0.19037537 -0.28254625 -0.32913157
-0.50876474 0.514106 -0.056231976 0.22611405 -0.21667069 -0.38326043 0.26402298 -0.476452
-0.4031705 0.68443793 0.35742417 0.47087607 -0.16900432 0.23133396 -0.053102948 0.697646
-0.57787174 -0.45432213 -0.4392031 -0.15523046 0.13245293 0.0749185 -0.13908249 0.34016052
-0.0007149383 0.3957914 -0.5642588 -0.20699647 -0.048677363 -0.022564888 -0.3792837 0.3424932
-0.044133723 0.016851041 0.36003232 0.2634501 0.42855355 -0.657927 -0.10291207 0.38592502
0.40542424 0.23686488 0.024359426 -0.11985701 -0.042897407 -0.050026957 0.43632653 -0.44005927
-0.2603625 0.29135776 0.5561242 -0.0009905795 0.5341277 0.35752612 0.31080875 -0.5281337
0.5515403 -0.49187675 0.370078 0.16900514 -0.60844266 0.6162019 -0.6646322 -0.13637528
0.23653848 -0.52704614 0.60984117 -0.23044236 -0.097224906 0.42208567 0.5098254 -0.02605537
-0.29941913 0.14985839 -0.6587847 -0.2373204 -0.16680762 -0.056223907 0.5442265 -0.692249
0.6132084 0.69077474 0.34911197 -0.69287956 -0.34314835 -0.10776 0.0721371 -0.18363464
-0.66362244 -0.61587495 0.22460671 0.23382014 0.15987659 0.6043005 -0.28095898 0.5438921
0.20573625 -0.09673804 -0.1848491 0.5608239 0.09240603 -0.40328684 0.49553218 0.31959534
-0.7019419 0.623798 0.07672205 -0.11755395 0.059450623 -0.029796839 0.10756193 0.5085508
-0.43258938 0.6525479 -0.10853122 -0.59845895 -0.53695637 -0.095760405 0.07964874 0.24398057
-0.29307216 -0.39660183 0.54682565 -0.6211732 -0.28690565 0.69224584 0.4550429 -0.44871852
0.61591357 0.21254443 0.21692379 0.28140163 0.6737156 -0.34969938 0.089352705 -0.047420267
0.15468784 -0.5193868 0.6422148 0.602544 -0.23182434 0.4840776 0.31204984 -0.7049089
0.63397133 -0.15024245 0.40312484 0.15366876 0.19636738 -0.5063602 -0.5749773 0.6732384
-0.49618986 -0.57931817 0.121918716 -0.2247302 0.52417105 -0.53195405 0.6333024 0.57443
-0.5701494 -0.51342994 -0.6602649 -0.03386146 0.027404891 0.16716123 0.26372015 0.26489052
0.3095209 0.48411405 0.42520827 0.46375352 0.135095 -0.037977695 -0.14526856 -0.5977471
0.1624331 -0.48244816 -0.095418274 0.04757186 0.32133397 -0.17858243 0.20234607 -0.4127314
0.26497844 0.55945796 0.3975197 0.6630028 0.11632149 -0.19808054 -0.31731582 -0.19066161
0.040434726 -0.6095775 0.07925537 -0.5950791 0.056572013 0.48570994 0.51614 0.23973547
0.68425584 -0.48733422 -0.65667564 -0.40614802 0.63633215 -0.15106584 -0.087459505 -0.5816655
0.34229666 -0.29805982 0.48999068 -0.5634452 0.5980307 0.6771471 0.5466862 0.57386315
0.37694383 -0.22349606 -0.22970816 0.57093537 0.65003496 0.12002011 -0.20191461 -0.36975473
-0.40754882 0.5618589 0.55430764 -0.09111695 0.5238453 0.019965207 0.26548854 -0.10409647
-0.13628617 -0.18283999 -0.6721087 0.46186122 -0.6978005 -0.64284736 -0.6121336 -0.5671742
00000000: bc02 71be 22f1 eebe 8e73 05bf 279c 14be
00000010: b7eb 1b3f c78d f73e f35d 16bf b007 20be
00000020: 9b93 a9bd 941b 34bf 4880 fdbd 8e48 293d
00000030: bc8b 253c c3f1 42be e7a9 90be ef83 a8be
00000040: 683e 02bf 739c 033f 8053 66bd 718a 673e
00000050: ecde 5dbe b63a c4be 052e 873e 84f1 f3be
00000060: 5d6c cebe 5337 2f3f 4d00 b73e ab16 f13e
00000070: 780f 2dbe cfe2 6c3e 7a82 59bd ee98 323f
00000080: 67ef 13bf e99c e8be 3bdf e0be bcf4 1ebe
00000090: bea1 073e df6e 993d a46b 0ebe 8529 ae3e
000000a0: b26a 3bba 2ca5 ca3e 4473 10bf e2f6 53be
000000b0: ea61 47bd 00da b8bc 7931 c2be 455b af3e
000000c0: 90c5 34bd 320b 8a3c 2856 b83e eee2 863e
000000d0: 5f6b db3e e76d 28bf 90c3 d2bd f797 c53e
000000e0: c493 cf3e b58c 723e 6b8d c73c 9877 f5bd
000000f0: 31b5 2fbd 11e9 4cbd 3166 df3e 734f e1be
00000100: 3c4e 85be d82c 953e 285e 0e3f 55d6 81ba
00000110: 98bc 083f aa0d b73e 5322 9f3e c533 07bf
00000120: bf31 0d3f 45d7 fbbe dd7a bd3e af0f 2d3e
00000130: e6c2 1bbf 68bf 1d3f 5625 2abf f6a5 0bbe
00000140: 2537 723e 7fec 06bf 8d1e 1c3f 15f9 6bbe
00000150: da1d c7bd 9d1b d83e eb83 023f 1272 d5bc
00000160: 774d 99be 7a74 193e 1da6 28bf 1e04 73be
00000170: 9ecf 2abe 0a4b 66bd 6e52 0b3f 3b37 31bf
00000180: 3afb 1c3f 9dd6 303f cebe b23e 8e60 31bf
00000190: 24b1 afbe 46b1 dcbd 9ebc 933d b80a 3cbe
000001a0: 29e3 29bf fba9 1dbf 4dff 653e 8c6e 6f3e
000001b0: b0b6 233e 70b3 1a3f dbd9 8fbe 833c 0b3f
000001c0: 86ac 523e 981e c6bd 1549 3dbe 2892 0f3f
000001d0: 5f3f bd3d 9d7b cebe 65b6 fd3e 00a2 a33e
000001e0: 77b2 33bf 3ab1 1f3f 7320 9d3d 20c0 f0bd
000001f0: 7f82 733d 8018 f4bc 6e49 dc3d 6330 023f
00000200: 5b7c ddbe 610d 273f 9e45 debd 9b34 19bf
00000210: f975 09bf 081e c4bd e11e a33d 0bd6 793e
00000220: 8e0d 96be 650f cbbe c4fc 0b3f 3505 1fbf
00000230: 4ce5 92be 0637 313f 62fb e83e 6fbe e5be
00000240: 83ac 1d3f 3fa5 593e 4521 5e3e e013 903e
00000250: a078 2c3f cc0b b3be 8dfe b63d c13b 42bd
00000260: 7d66 1e3e 89f6 04bf 3068 243f 5340 1a3f
00000270: 5c63 6dbe 05d9 f73e ffc4 9f3e e974 34bf
00000280: f24b 223f 28d9 19be 6166 ce3e 585b 1d3e
00000290: 8814 493e d2a0 01bf b631 13bf 5a59 2c3f
000002a0: 990c febe 324e 14bf 85b0 f93d ac1f 66be
000002b0: 1330 063f 242e 08bf 1b20 223f d80d 133f
000002c0: 50f5 11bf 2570 03bf 1f07 29bf 50b2 0abd
000002d0: 3980 e03c 502c 2b3e 5406 873e bb9f 873e
000002e0: 8679 9e3e ccdd f73e e6b4 d93e 1a71 ed3e
000002f0: 5856 0a3e 808e 1bbd 48c1 14be f405 19bf
00000300: dd54 263e 7203 f7be a86a c3bd b6da 423d
00000310: e385 a43e 50de 36be cf33 4f3e 8851 d3be
00000320: 41ab 873e a338 0f3f b487 cb3e 8dba 293f
00000330: f639 ee3d a0d5 4abe 3877 a2be cc3c 43be
00000340: e29e 253d 450d 1cbf a450 a23d 1b57 18bf
00000350: 0eb8 673d f9ae f83e c021 043f 377d 753e
00000360: 642b 2f3f df83 f9be e51b 28bf a2f2 cfbe
00000370: aae6 223f 01b1 1abe f81d b3bd 08e8 14bf
00000380: 8241 af3e 4c9b 98be 0fe0 fa3e f23d 10bf
00000390: 8a18 193f 8359 2d3f a0f3 0b3f b2e8 123f
000003a0: c8fe c03e 27dc 64be 9e38 6bbe d228 123f
000003b0: b168 263f 1acd f53d b4c2 4ebe 7e50 bdbe
000003c0: 3daa d0be fcd5 0f3f 1be7 0d3f 869b babd
000003d0: ba1a 063f 138e a33c 1dee 873e 8830 d5bd
000003e0: 9a8e 0bbe 683a 3bbe 510f 2cbf 1379 ec3e
000003f0: 0ea3 32bf a591 24bf cab4 1cbf 5432 11bf

onnx::Gemm_5 f4 [256, 256]
-0.033984736 -0.045564055 0.04111541 0.05688632 0.027580693 0.020279385 -0.055100847 0.022473447
-0.0035394372 -0.004410006 -0.014779389 0.01514975 0.054430217 0.047886945 -0.019398676 0.013191201
-0.05983466 0.029865287 -0.021014951 0.057203747 0.03649901 -0.054754086 -0.022366464 0.0116690695
0.019012839 -0.044765055 0.05366669 0.037713215 -0.061843805 0.030429678 0.055837937 -0.058180206
-0.05684364 0.034935065 0.039968774 0.0079164505 -0.020829784 -0.00072178245 0.0076492345 0.038790904
-0.05440994 0.007728569 0.04651038 -0.034581028 0.036800917 -0.016968533 0.039558977 -0.04730076
-0.011052236 0.06116038 0.049541984 0.025081582 -0.028718635 -0.005133927 -0.03778362 0.011035394
0.012393228 -0.004093897 0.0505647 -0.0062115937 -0.043890268 0.039479367 0.035670463 0.057033878
-0.045298077 0.022252413 0.041120622 -0.034285445 0.023764083 -0.05734431 -0.016871952 -0.030494679
-0.00830039 0.053933833 -0.03883365 -0.05694537 0.0093901465 -0.00971894 0.011000698 0.022814915
0.029996425 -0.030959897 -0.0064298296 0.014645053 -0.011314193 0.03915429 0.011070133 -0.03705555
-0.029819049 -0.043069445 -0.05369217 0.018394269 -0.038269702 -0.008669352 -0.059969623 -0.0032745628
-0.007384397 -0.049596332 0.0211607 -0.02730301 0.03756237 0.052544646 -0.056337878 -0.00936313
-0.052165274 -0.025082609 -0.006248191 0.043422204 0.06256027 -0.05628874 -0.05583872 0.057593156
-0.052103758 0.028793037 0.06127779 0.020158494 0.03565664 -0.01702156 -0.04350078 -0.054834314
0.022891894 0.018277898 -0.05172827 -0.021157853 -0.028975226 0.03783208 0.025060564 -0.033812694
-0.047731254 -0.008279927 -0.045136206 -0.040229887 0.019638091 0.05863668 0.022212371 -0.046192843
0.00671459 0.0449747 -0.054612584 0.005239024 -0.033737913 0.017242007 -0.011802863 -0.043691397
-0.0012203604 -0.04613199 0.05038666 -0.034144625 -0.0027792833 -0.0476117 -0.050553333 0.033873186
0.0005155802 -0.028879648 0.062374517 -0.013823939 0.039010182 0.04066086 0.025463589 -0.06225942
0.054243505 0.014345571 0.016593777 -0.0116207 0.0076645343 0.044742245 0.017403925 -0.026591094
0.048652172 0.024837874 -0.007889838 0.032221377 0.018811062 -0.0332795 -0.05464707 -0.0037559113
-0.03278289 -0.034945324 0.03098277 0.03619054 -0.025465831 0.007210281 0.016350988 0.036681578
-0.046478897 0.03127011 -0.05165895 0.0414743 0.049661957 0.0482321 -0.052997805 0.030862182
-0.027643971 0.02897904 -0.043854557 -0.046641156 -0.031050984 -0.023856679 -0.01253546 -0.0076515055
0.014141738 0.0062738564 -0.007334791 0.020400085 -0.025057867 -0.04627499 0.03062993 0.04283482
-0.0118063595 0.00998675 -0.02780176 0.04966153 -0.042151526 0.023567865 0.03778392 0.05941286
0.011450857 -0.054714642 -0.030679721 0.029163176 0.012023967 0.031788785 0.04788728 -0.053734303
0.008783302 -0.025259294 0.006492792 -0.0552995 -0.056635503 0.003927654 0.009098679 0.013048388
-0.046611257 0.025600985 -0.03865952 0.044396017 -0.038018577 0.03723678 0.008495241 0.05069316
-0.008016117 -0.027732374 -0.04025793 0.04828123 -0.037457358 0.040992968 -0.04391353 -0.016060099
0.04909544 -0.04554864 0.024078786 -0.039705448 -0.017483706 0.062158365 -0.0263891 -0.026567452
00000000: 9433 0bbd 60a1 3abd a268 283d a101 693d
00000010: e8f0 e13c f420 a63c 6db1 61bd 3c1a b83c
00000020: e7f5 67bb d081 90bb 4025 72bc a836 783c
00000030: 38f2 5e3d 1a25 443d f9e9 9ebc e81f 583c
00000040: 3015 75bd 0ca8 f43c 8c27 acbc 7a4e 6a3d
00000050: fc7f 153d d245 60bd e039 b7bc a02f 3f3c
00000060: d0c0 9b3c 905b 37bd 9ad1 5b3d 2c79 1a3d
00000070: ee4f 7dbd a947 f93c 52b6 643d 5e4e 6ebd
00000080: e0d4 68bd 1218 0f3d 4cb6 233d 00b4 013c
00000090: 39a3 aabc 0036 3dba 6ea6 fa3b 36e3 1e3d
000000a0: f5dc 5ebd f03f fd3b ab81 3e3d d6a4 0dbd
000000b0: 8fbc 163d 9801 8bbc 9808 223d 71be 41bd
000000c0: 7014 35bc 4e83 7a3d 89ec 4a3d e477 cd3c
000000d0: 5843 ebbc 803a a8bb ffc2 1abd cccd 343c
000000e0: f70c 4b3c 1926 86bb ee1c 4f3d a08a cbbb
000000f0: 48c6 33bd 1eb5 213d 311b 123d 5b9c 693d
00000100: 7a8a 39bd b14a b63c 196e 283d e56e 0cbd
00000110: e5ac c23c dee1 6abd 0c37 8abc facf f9bc
00000120: 5cfe 07bc b9e9 5c3d 0910 1fbd 8c3f 69bd
00000130: 21d9 193c 303c 1fbc 463c 343c 58e6 ba3c
00000140: 10bb f53c 9c9f fdbc 52b1 d2bb cef1 6f3c
00000150: 2a5f 39bc 4060 203d 815f 353c 8fc7 17bd
00000160: 1447 f4bc 9669 30bd 52ec 5bbd 94af 963c
00000170: b1c0 1cbd e609 0ebc b5a2 75bd 0c9a 56bb
00000180: d0f8 f1bb 8625 4bbd 3459 ad3c 90aa dfbc
00000190: 00db 193d 0e39 573d 8cc2 66bd d067 19bc
000001a0: 41ab 55bd 0b7a cdbc a0bd ccbb 7bdb 313d
000001b0: 991f 803d 068f 66bd 24b7 64bd cde6 6b3d
000001c0: c06a 55bd 60df eb3c 6cfe 7a3d 6d23 a53c
000001d0: b20c 123d cc70 8bbc e02d 32bd f299 60bd
000001e0: c887 bb3c 88bb 953c 06e1 53bd 3c53 adbc
000001f0: 745d edbc d0f5 1a3d d04b cd3c 2e7f 0abd
00000200: d981 43bd 88a8 07bc bee0 38bd 18c8 24bd
00000210: 10e0 a03c 042d 703d b8f6 b53c b534 3dbd
00000220: 1006 dc3b 6437 383d 72b1 5fbd 1eac ab3b
00000230: c430 0abd 1c3f 8d3c cc60 41bc c0f5 32bd
00000240: 80f4 9fba e6f4 3cbd 3e62 4e3d 3cdb 0bbd
00000250: a324 36bb 7c04 43bd 0311 4fbd 9cbe 0a3d
00000260: 0028 073a 0395 ecbc 6c7c 7f3d cd7d 62bc
00000270: 24c9 1f3d 008c 263d 0499 d03c bc03 7fbd
00000280: 702e 5e3d b009 6b3c acef 873c c064 3ebc
00000290: c626 fb3b a543 373d ad92 8e3c 91d5 d9bc
000002a0: 8047 473d cc78 cb3c 6144 01bc 90fa 033d
000002b0: a819 9a3c 1650 08bd 9bd5 5fbd bc25 76bb
000002c0: 5a47 06bd d422 0fbd 94cf fd3c 883c 143d
000002d0: b89d d0bc 3944 ec3b 82f2 853c 6c3f 163d
000002e0: a860 3ebd 1615 003d 5698 53bd f5e0 293d
000002f0: 566a 4b3d 068f 453d 3a14 59bd b0d2 fc3c
00000300: 9c75 e2bc 7465 ed3c d6a0 33bd cc0a 3fbd
00000310: a25e febc 156f c3bc 8861 4dbc 7bb9 fabb
00000320: c0b2 673c ec94 cd3b b058 f0bb 141e a73c
00000330: 2846 cdbc d88a 3dbd 9eeb fa3c 9073 2f3d
00000340: 766f 41bc 779f 233c 84c0 e3bc e369 4b3d
00000350: 14a7 2cbd 6511 c13c 50c3 1a3d e65a 733d
00000360: 609c 3b3c 761c 60bd 0a54 fbbc 9de7 ee3c
00000370: 2c00 453c f534 023d 7425 443d 8018 5cbd
00000380: d7e7 0f3c 94ec cebc 7dc1 d43b ba81 62bd
00000390: a1fa 67bd 8db3 803b a012 153c e8c8 553c
000003a0: 72eb 3ebd 28b9 d13c 7259 1ebd 99d8 353d
000003b0: 5eb9 1bbd 9885 183d a02f 0b3c a2a3 4f3d
000003c0: 0856 03bc 012f e3bc 80e5 24bd 8ac2 453d
000003d0: e36c 19bd 3ee8 273d acde 33bd 7890 83bc
000003e0: 4d18 493d 3691 3abd e040 c53c 2ea2 22bd
000003f0: fd39 8fbc c599 7e3d f42d d8bc fca3 d9bc

onnx::Gemm_6 f4 [256]
-0.018999329 -0.0032320833 -0.023190541 0.03989302 -0.034676753 0.052621346 0.051869355 0.04107793
-0.019232705 -0.016680868 0.049246855 0.006206679 -0.024552215 0.036835615 0.010540142 -0.032584757
-0.0229308 0.054779254 -0.04011748 -0.022613436 0.029514655 0.032359533 -0.021415778 -0.0147995055
-0.019286655 -0.062009282 -0.02909074 0.05665633 0.050768256 0.010649164 0.011821025 -0.017157387
0.0343461 -0.04257762 0.06305178 0.021830287 0.007921991 -0.036311217 -0.0027118714 -0.057411373
0.02015745 0.039629556 0.0494137 0.0150341485 -0.008869596 0.046266966 -0.00056839676 0.038108807
-0.056027092 0.025498584 0.04386296 0.05715902 -0.03898033 0.044813775 -0.04512664 0.030091241
0.04934395 -0.022577018 -0.026288396 0.019254781 -0.058223926 -0.0025658533 0.0055878167 -0.003480631
0.010129154 0.0063182022 -0.05564152 -0.0098255705 -0.0573935 -0.03253731 0.022701748 0.017308086
-0.020656934 0.02207247 0.016758494 -0.06011055 0.04035771 -0.023616787 -0.010816764 0.005776689
0.010873925 0.0011099016 -0.04094992 0.05331297 -0.05738067 -0.0016142385 0.025380468 0.0030647987
-0.05408301 0.017741406 0.012621122 -0.035536993 0.01767737 -0.04254067 0.036990162 0.010255835
0.04599689 -0.041543 -0.040771604 -0.027702563 0.03439261 -0.040560935 -0.051301975 -0.01866496
0.051524837 0.029987855 0.021911176 0.023763068 0.04252845 -0.05085688 -0.0037912892 -0.06160281
-0.023156969 -0.05332178 -0.025036901 0.00453694 0.021498995 -0.018809026 0.06082812 0.05659486
-0.01446547 0.0046895663 -0.00410437 -0.025532229 0.012674533 0.03551014 -0.05037331 -0.029765155
-0.052255288 0.01675104 -0.04016042 -0.015095542 0.045666274 -0.032835804 -0.036918044 0.023765597
0.021893214 -0.0053999745 -0.052012518 0.027328402 0.048774883 0.048921295 -0.012926813 -0.037565634
0.005600248 0.033935267 -0.00083141774 0.012734901 -0.037394956 0.037712153 0.026500473 -0.053135857
-0.02241046 0.0022933031 -0.018801928 -0.01785046 0.021340655 0.04868966 0.06471104 -0.025455639
-0.008721713 0.002477055 0.0060427585 0.054023013 0.00730904 -0.04445435 -0.047271952 0.023662953
0.025487838 0.031039309 -0.010350455 -0.0441207 0.03548176 -0.051214255 0.0039625345 0.031153461
-0.0010956621 -0.035659943 0.00063472014 0.005257418 -0.010223232 -0.012292116 0.032592237 0.045844384
0.034003552 0.011476558 0.023886697 0.027124753 0.016478993 0.017829647 0.058536414 -0.044640288
-0.0218852 0.047466304 0.029445246 -0.030010292 -0.05719147 0.056279205 -0.0020528391 0.046879858
0.02688907 -0.059894904 -0.031913087 -0.013297915 0.0045484463 -0.05141238 -0.02175454 0.020273704
0.025454618 -0.005026264 -0.033676498 0.056027733 -0.011089183 0.0030131438 0.051357403 -0.053938195
0.025986083 0.05663935 0.05782458 0.017958626 0.030370675 -0.0076413346 0.016734464 -0.05259738
-0.030754246 -0.012470674 -0.057351533 -0.029803216 -0.040294968 0.016165912 0.007978514 0.048098154
0.0052861096 -0.030994546 -0.0543728 -0.026129665 0.044833086 0.03536547 -0.023348168 -0.046383206
-0.034252603 -0.009722219 -0.007895015 0.027287647 0.037830874 -0.0509476 0.0513971 -0.02808939
0.023555018 0.020681854 0.01615075 -0.034856763 0.037187405 0.0058155456 -0.01832386 -0.005432925
00000000: 7ba4 9bbc 5cd1 53bb 17fa bdbc dd66 233d
00000010: 3609 0ebd 7b89 573d f674 543d 5541 283d
00000020: e88d 9dbc 51a6 88bc 12b7 493d 6661 cb3b
00000030: ba21 c9bc f1e0 163d 8fb0 2c3c 9877 05bd
00000040: 60d9 bbbc 3660 603d 3a52 24bd d03f b9bc
00000050: b8c8 f13c 6e8b 043d 2470 afbc a079 72bc
00000060: 0cff 9dbc 72fd 7dbd b44f eebc 7810 683d
00000070: 60f2 4f3d d579 2e3c f9ac 413c a68d 8cbc
00000080: 7fae 0c3d df65 2ebd 4b21 813d 6ed5 b23c
00000090: 3dcb 013c 12bb 14bd a7b9 31bb 3028 6bbd
000000a0: 3d21 a53c 9a52 223d 0566 4a3d ca51 763c
000000b0: c851 11bc 6e82 3d3d 7600 15ba fb17 1c3d
000000c0: aa7c 65bd 68e2 d03c a6a9 333d 941f 6a3d
000000d0: d7a9 1fbd a68e 373d b6d6 38bd e881 f63c
000000e0: e21c 4a3d 70f3 b8bc c35a d7bc 34bc 9d3c
000000f0: 367c 6ebd e027 28bb 011a b73b 4c1b 64bb
00000100: c0f4 253c ec08 cf3b 5de8 63bd 6efb 20bc
00000110: 7215 6bbd d845 05bd 04f9 b93c b0c9 8d3c
00000120: bb38 a9bc 53d1 b43c 1c49 893c 7b36 76bd
00000130: 204e 253d fe77 c1bc cc38 31bc 614a bd3b
00000140: 8c28 323c 1e7a 913a 1abb 27bd b35e 5a3d
00000150: fe07 6bbd db94 d3ba b3ea cf3c cada 483b
00000160: 2586 5dbd 6d56 913c d3c8 4e3c 3d8f 11bd
00000170: 22d0 903c 203f 2ebd ff82 173d 1708 283c
00000180: 3c67 3c3d fe28 2abd 2000 27bd 7cf0 e2bc
00000190: 44df 0c3d 3923 26bd 0522 52bd 42e7 98bc
000001a0: b50b 533d 17a9 f53c 117f b33c c4aa c23c
000001b0: 5032 2e3d 4e4f 50bd 4777 78bb 3a53 7cbd
000001c0: afb3 bdbc f067 5abd 301a cdbc 9caa 943b
000001d0: a91e b03c 6315 9abc e826 793d 03d0 673d
000001e0: 9400 6dbc efaa 993b f37d 86bb f728 d1bc
000001f0: d8a8 4f3c 1573 113d 3e54 4ebd 0ed6 f3bc
00000200: a409 56bd 7a39 893c 417f 24bd 4b53 77bc
00000210: 8f0c 3b3d d67e 06bd 6037 17bd 12b0 c23c
00000220: 6659 b33c 45f2 b0bb 140b 55bd d0df df3c
00000230: 2cc8 473d b261 483d fcca 53bc 6cde 19bd
00000240: 4982 b73b b5ff 0a3d 80f3 59ba 0ca6 503c
00000250: 742b 19bd 0f78 1a3d 8517 d93c fca4 59bd
00000260: 2496 b7bc 3e4b 163b 8006 9abc 213b 92bc
00000270: 99d2 ae3c cf6e 473d 3987 843d 5888 d0bc
00000280: 84e5 0ebc 1656 223b 5502 c63b 3c47 5d3d
00000290: ac80 ef3b c415 36bd 3ca0 41bd cfd8 c13c
000002a0: dfcb d03c 2646 fe3c f494 29bc e8b7 34bd
000002b0: 5255 113d 0ac6 51bd 26d8 813b 8b35 ff3c
000002c0: 529c 8fba 2910 12bd 5963 263a 6b46 ac3b
000002d0: 587f 27bc df64 49bc 707f 053d 52c7 3b3d
000002e0: 4f47 0b3d 2c08 3c3c 09ae c33c bb34 de3c
000002f0: f4fe 863c 7b0f 923c e1c3 6f3d bcd8 36bd
00000300: 9748 b3bc 076c 423d 2837 f13c 25d8 f5bc
00000310: 9a41 6abd 0685 663d ed88 06bb 1805 403d
00000320: 7846 dc3c 5c54 75bd 4cb7 02bd 80df 59bc
00000330: 220b 953b ca95 52bd 9436 b2bc 0a15 a63c
00000340: 3486 d03c 5cb3 a4bb 5ef0 09bd 567d 653d
00000350: 68af 35bc 2a78 453b 245c 523d 4cee 5cbd
00000360: c4e0 d43c aafe 673d 78d9 6c3d f81d 933c
00000370: eccb f83c 2964 fabb b716 893c 5a70 57bd
00000380: 54f0 fbbc cc51 4cbc 71e9 6abd e025 f4bc
00000390: 560c 25bd 606e 843c 50b8 023c 9202 453d
000003a0: 1a37 ad3b 46e8 fdbc 03b6 5ebd e10d d6bc
000003b0: e6a2 373d 62db 103d a844 bfbc 51fc 3dbd
000003c0: 754c 0cbd f149 1fbc 185a 01bc 588a df3c
000003d0: 8cf4 1a3d 6eae 50bd c485 523d b81b e6bc
000003e0: 74f6 c03c fe6c a93c 944e 843c f7c5 0ebd
000003f0: d251 183d 5590 be3b eb1b 96bc ae06 b2bb

onnx::Gemm_9 f4 [2, 256]
-0.017137017 -0.022204423 -0.012284739 -0.057980478 -0.040920645 0.01623785 0.0044939294 0.040594798
-0.03271713 -0.016191462 -0.041181218 -0.017100915 0.02726985 -0.043160953 -0.027906608 0.0054544355
0.0008363798 0.016959405 -0.01337186 -0.01713927 -0.035863496 0.027018392 -0.038312614 0.017443137
-0.05169233 0.023717595 -0.019312516 -0.028886402 0.05922517 0.035645667 -0.047572844 -0.046892926
0.05434145 0.011613915 0.035840467 -0.011196703 0.0050124656 0.02666042 -0.023707617 -0.024695903
0.05827646 -0.020901658 0.055045348 0.046846956 0.018121984 -0.02856043 -0.017806154 -0.042503864
-0.051496293 0.003255114 0.009170795 0.053865932 -0.025903251 -0.0424533 0.029844718 -0.034460355
-0.024427071 0.0021438003 0.03517249 -0.026035778 0.010285519 -0.011500537 0.059602104 0.00496897
0.027580574 -0.05300022 0.019816175 0.044631664 -0.046974756 0.050207235 0.0144059695 -0.05209261
-0.030059703 0.016890392 0.044712216 -0.03364679 -0.0048644408 -0.059405804 0.0064277765 0.007555848
0.051408388 -0.03614971 -0.042801 0.026784988 0.025861025 0.0075687063 -0.061938338 -0.026747854
0.015259403 0.025888428 0.04337056 0.0040717195 -0.05547297 0.046321996 -0.05999816 0.056377128
-0.059408255 -0.024075173 -0.020918392 -0.050624922 0.037896395 0.014248377 0.016149295 -0.043726873
0.0609445 -0.0684372 -0.018860139 -0.033392556 0.01900702 0.01563868 -0.041968856 -0.010457008
0.0045890873 0.038041696 0.021830872 -0.012688732 -0.0068995156 -0.04372184 -0.03031177 -0.05870287
0.0073032626 0.024037575 0.034609012 0.034072652 0.033353142 -0.011698115 0.025280781 0.038518187
-0.052840542 -0.05543627 0.044656526 -0.06984428 0.0065486515 0.060463235 0.0014691507 0.06111376
0.020368535 -0.061346076 -0.038006596 0.033775605 -0.043768972 -0.023422256 0.00713099 0.050777085
-0.023242053 -0.023204878 0.020965248 0.008738211 0.019285062 0.020465098 -0.030765956 0.055959832
0.0463883 -0.0697759 0.008817949 -0.05159844 -0.012309305 -0.056766383 -0.059049934 0.0052245036
-0.032265194 0.03552363 -0.01137461 0.05903822 0.012955242 0.012554901 0.022705361 0.06353151
0.012446026 -0.04277685 -0.023337422 -0.0061612953 -0.029731091 0.045534387 0.024781805 0.043005154
0.0037782453 0.060115796 -0.02253916 0.055870507 -0.062190175 0.04857509 -0.041057646 -0.058809407
0.06263091 0.012817557 -0.014338083 -0.025055604 0.04405655 0.029294968 0.0064065093 -0.010895215
-0.025897097 -0.007880747 0.06165167 -0.019737842 0.034453414 -0.008747471 0.0037159799 0.03235271
-0.045937136 -0.047742687 0.03345065 -0.043368377 0.029159315 0.017365634 -0.022844426 -0.037885167
-0.036766544 -0.04898292 -0.04210919 -0.018784905 -0.03852173 -0.058453787 0.058758948 -0.0483967
0.008849718 -0.069877215 -0.032426797 0.020025358 0.034434024 -0.04725468 0.040117644 0.045229163
0.038443662 -0.05423762 -0.0017147586 -0.000642268 0.03790555 -0.013493098 -0.049247786 -0.004000987
-0.0148231555 0.047267076 0.05474326 0.0029578358 -0.0009440686 -0.027769513 -0.039617114 -0.041994672
0.04860552 -0.042234074 -0.043418925 -0.024814203 0.01459866 -0.025251629 0.017835008 -0.024782203
0.028926298 -0.044297483 0.043528344 -0.0027677722 0.05615746 0.010398949 0.0265442 -0.046999685
00000000: ee62 8cbc 0de6 b5bc ee45 49bc f07c 6dbd
00000010: 689c 27bd 3d05 853c d041 933b bb46 263d
00000020: 6602 06bd f5a3 84bc a3ad 28bd 3817 8cbc
00000030: 0565 df3c 8ac9 30bd 669c e4bc 1fbb b23b
00000040: 8040 5b3a 73ee 8a3c a515 5bbc a867 8cbc
00000050: 9ae5 12bd ad55 dd3c b0ed 1cbd e9e4 8e3c
00000060: 56bb 53bd 674b c23c 4835 9ebc 2da3 ecbc
00000070: 1896 723d 3101 123d bedb 42bd cc12 40bd
00000080: 2495 5e3d 4a48 3e3c 74cd 123d 6072 37bc
00000090: 9c3f a43b f466 da3c 7a36 c2bc 104f cabc
000000a0: 4cb3 6e3d f439 abbc 3b77 613d 98e2 3f3d
000000b0: 8e74 943c 90f7 e9bc 36de 91bc 8818 2ebd
000000c0: c7ed 52bd c053 553b 1a41 163c 86a2 5c3d
000000d0: 0e33 d4bc 83e3 2dbd e97c f43c 4d26 0dbd
000000e0: 481b c8bc 007f 0c3b 0711 103d fc48 d5bc
000000f0: 9884 283c c06c 3cbc 5621 743d bed2 a23b
00000100: a8f0 e13c c216 59bd 8855 a23c b1cf 363d
00000110: 9a68 40bd 1aa6 4d3d 0407 6c3c 105f 55bd
00000120: c43f f6bc b85d 8a3c 2824 373d 37d1 09bd
00000130: e365 9fbb 8053 73bd 19a0 d23b 0c97 f73b
00000140: 9a91 523d b811 14bd 1a50 2fbd 316c db3c
00000150: 80da d33c e902 f83b 0eb3 7dbd 511e dbbc
00000160: 9302 7a3c f813 d43c 54a5 313d 0f6c 853b
00000170: a037 63bd 22bc 3d3d a1c0 75bd b4eb 663d
00000180: 1256 73bd 4c39 c5bc 0c5d abbc 145c 4fbd
00000190: 4039 1b3d 0672 693c 874b 843c f31a 33bd
000001a0: f1a0 793d cd28 8cbd 9480 9abc a2c6 08bd
000001b0: 9cb4 9b3c b01c 803c 89e7 2bbd df53 2bbc
000001c0: 0e60 963b 9cd1 1b3d a8d6 b23c 66e4 4fbc
000001d0: 5515 e2bb ac15 33bd 6450 f8bc 6c72 70bd
000001e0: 3550 ef3b 73ea c43c 2ec2 0d3d c48f 0b3d
000001f0: 4e9d 083d 73a9 3fbc a419 cf3c 3fc5 1d3d
00000200: 536f 58bd 2411 63bd c3e9 363d 850a 8fbd
00000210: 1296 d63b 4ca8 773d 8490 c03a 6c52 7a3d
00000220: eadb a63c 0646 7bbd ceac 1bbd 4a58 0a3d
00000230: 1847 33bd 08e0 bfbc 14ab e93b a2fb 4f3d
00000240: 1e66 bebc 2818 bebc 50bf ab3c b72a 0f3c
00000250: b5fb 9d3c 6ca6 a73c e308 fcbc 2336 653d
00000260: a801 3e3d abe6 8ebd 2979 103c e358 53bd
00000270: f8ac 49bc de83 68bd 58de 71bd 5032 ab3b
00000280: 8228 04bd 3a81 113d 925c 3abc 10d2 713d
00000290: 3942 543c 12b3 4d3c 9800 ba3c cf1c 823d
000002a0: 6bea 4b3c c736 2fbd 1f2e bfbc b1e4 c9bb
000002b0: 9e8e f3bc 4482 3a3d 3603 cb3c 2c26 303d
000002c0: 709c 773b fb3b 763d 0ba4 b8bc 79d8 643d
000002d0: 20bb 7ebd acf6 463d 102c 28bd 22e2 70bd
000002e0: a244 803d bb00 523c 47ea 6abc 6941 cdbc
000002f0: a474 343d 00fc ef3c b2ed d13b d881 32bc
00000300: 2626 d4bc 401e 01bc 7686 7c3d 41b1 a1bc
00000310: 061f 0d3d 8d51 0fbc cc87 733b 4684 043d
00000320: 9428 3cbd d68d 43bd 8c03 093d 0aa3 31bd
00000330: 84df ee3c 6042 8e3c 3c24 bbbc 7a2d 1bbd
00000340: 8498 16bd 50a2 48bd b07a 2cbd cde2 99bc
00000350: f6c8 1dbd 3d6d 6fbd 39ad 703d 9e3b 46bd
00000360: 68fe 103c c91b 8fbd f6d1 04bd 380c a43c
00000370: b10a 0d3d 208e 41bd 6652 243d 3742 393d
00000380: 1a77 1d3d 4428 5ebd c0c1 e0ba e05d 28ba
00000390: da42 1b3d 2812 5dbc 0cb8 49bd b61a 83bb
000003a0: d2dc 72bc 1f9b 413d 783a 603d 40d8 413b
000003b0: 5f7b 77ba e47c e3bc 8e45 22bd 9b02 2cbd
000003c0: 9516 473d a3fd 2cbd 0bd8 31bd 2847 cbbc
000003d0: 382f 6f3c 81dc cebc b91a 923c 0c04 cbbc
000003e0: d8f6 ec3c 4771 35bd c74a 323d 8363 35bb
000003f0: 5d05 663d 5a60 2a3c 3973 d93c be82 40bd

onnx::Gemm_10 f4 [2]
0.044131227 -0.0057403524
00000000: f2c2 343d 9119 bcbb
